Student Performance/students_weights.pth (torch, 3159 bytes, 6 tensors)

0.weight f4 [10, 18]
0	0xbe883619	-0.26603773
1	0xbf3f2391	-0.74663645
2	0x3f2d561e	0.6770953
3	0xbd7f8bac	-0.06238906
4	0x3d09e05b	0.033661228
5	0xbe20e0b2	-0.15710714
6	0x3d619a33	0.055078696
7	0x3da17b8f	0.07884895
8	0x3e3ac42e	0.18238899
9	0xbd1e57eb	-0.038658064
10	0x3d365e1f	0.044523355
11	0xbeec83cc	-0.46194303
12	0x3cad8448	0.02118124
13	0x3e217170	0.15765929
14	0x3ea46b43	0.32113084
15	0x3d2496f6	0.04018303
16	0x3cab5f55	0.020919481
17	0x3e09f562	0.13472512
18	0xbe8fb388	-0.2806666
19	0x3e2bd268	0.16779482
20	0xbdfea66f	-0.124340884
21	0xbe837e9b	-0.2568253
22	0xbe85507d	-0.2603797
23	0xbe675327	-0.22590314
24	0x3e44f95f	0.19235753
25	0xbdd6950d	-0.10477648
26	0xbe619b0c	-0.22031802
27	0x3e3c07e6	0.18362388
28	0xbeb083eb	-0.34475645
29	0x3e296de7	0.1654583
30	0x3eb21468	0.34781194
31	0x3e1b28f4	0.15152341
32	0x3ea7b215	0.32753053
33	0x3da4d0b7	0.08047622
34	0x3d9a73e9	0.07541639
35	0xbe0ed730	-0.13949275
36	0xbe3a461d	-0.18190809
37	0xbeac2bd5	-0.3362719
38	0x3e20105c	0.1563124
39	0x3f201305	0.6252902
40	0xbe23ed22	-0.16008428
41	0x3e470654	0.19436008
42	0xbe6327d0	-0.22183156
43	0xbef14005	-0.47119156
44	0x3e271528	0.16316664
45	0x3e8e844d	0.27835312
46	0x3e78ba12	0.2428973
47	0xbce26ee2	-0.027640764
48	0xbeab51f3	-0.3346096
49	0xbe4d125e	-0.20026538
50	0xbdf63513	-0.12021842
51	0xbe58edb3	-0.21184425
52	0x3df9c5b5	0.12195913
53	0xbea19000	-0.31555176
54	0x3ef94d69	0.48691872
55	0xbf414e7c	-0.7551038
56	0xbdd86645	-0.10566381
57	0xbe3703d4	-0.17872554
58	0xbe74c9fb	-0.23905174
59	0xbcc534e3	-0.02407307
60	0xbc447d88	-0.01199282
61	0x3eb5ce9c	0.35509193
62	0x3d07a79d	0.033118833
63	0xbef6ac9d	-0.48178568
64	0xbeda6457	-0.42654678
65	0x3ec14def	0.3775477
66	0x3eded05e	0.43518347
67	0xbe0d5b15	-0.13804276
68	0xbcc68d58	-0.02423732
69	0xbeb96799	-0.3621185
70	0x3e9967cd	0.29962006
71	0x3de263b3	0.11054172
72	0xbf2df249	-0.6794782
73	0x3dd71216	0.105014965
74	0xbd4a414a	-0.04937867
75	0x3ef16a61	0.47151473
76	0x3b9d82f1	0.004806869
77	0xbeb34b84	-0.3501855
78	0xbdd31c61	-0.10308147
79	0xbe54cf38	-0.20782173
80	0xbe593325	-0.21210916
81	0x3d106cea	0.03526012
82	0x3ea1b306	0.31581897
83	0x3eca36ff	0.39495084
84	0xbea5bbb1	-0.3236976
85	0xb9f3cae2	-0.0004649973
86	0xbd0015e8	-0.03127089
87	0x3dc4b91d	0.0960562
88	0x3e65967e	0.2242069
89	0xbe7fa369	-0.2496468
90	0xbe23e6de	-0.16006038
91	0x3f4efdcf	0.8085603
92	0xbe9c0cf0	-0.3047862
93	0xbe60d3e0	-0.21955824
94	0x3eb38725	0.35064045
95	0xbdf39c77	-0.11895078
96	0x3e8652a2	0.2623492
97	0x3c15ba7e	0.0091387015
98	0xbe5eca85	-0.21756943
99	0xbd8f6c09	-0.07003028
100	0xbe4a360a	-0.19747177
101	0x3ea4c6f3	0.32183036
102	0xbe65c6f1	-0.22439171
103	0x3d051bc1	0.03249717
104	0xbdb822a0	-0.08990979
105	0x3e1a1671	0.15047623
106	0xbe9c215f	-0.3049421
107	0x3d79ede0	0.06101787
108	0xbeb86492	-0.3601423
109	0xbeacd97e	-0.33759683
110	0xbe95660c	-0.29179418
111	0xbd411fcf	-0.047149476
112	0xbda99cc9	-0.082818575
113	0xbee98aa5	-0.4561359
114	0x3e28a187	0.16467868
115	0x3f058255	0.52151996
116	0xbb33b550	-0.0027421303
117	0xbdf4dcaa	-0.11956151
118	0x3e95b047	0.2923605
119	0xbe2c354b	-0.16817205
120	0x3d2ebecd	0.04266243
121	0x3f24f3f2	0.6443473
122	0x3e810bae	0.25204223
123	0xbe6eabf7	-0.23307787
124	0x3dbc8465	0.0920494
125	0xbceffeff	-0.029296396
126	0xbf124d55	-0.5714925
127	0x3eab2a38	0.33430648
128	0x3f6ecaeb	0.9327838
129	0x3d2b46fc	0.041815743
130	0xbe29b025	-0.165711
131	0x3eb18d7a	0.3467825
132	0xbe9e90e1	-0.3096991
133	0xbdda18d7	-0.10649269
134	0x3e01327e	0.12616917
135	0x3e330547	0.17482482
136	0x3e3da784	0.18520933
137	0xbd31dacf	-0.043421563
138	0xbd94acf9	-0.072595544
139	0xbe467159	-0.19379176
140	0xbe6ea3b9	-0.23304643
141	0x3e13af4d	0.1442234
142	0xbd9c732a	-0.07639153
143	0xbe39b4a5	-0.18135317
144	0xbf7afc32	-0.9804107
145	0x3eb6c30b	0.3569568
146	0x3ed462d1	0.4148164
147	0x3e9aaf18	0.3021171
148	0xbe3b710b	-0.18304841
149	0x3d8c41a4	0.068484575
150	0xbe90f7e6	-0.28314131
151	0x3ec614dd	0.38687792
152	0xbe222387	-0.15833865
153	0xbde46b0c	-0.1115323
154	0xbe8106ce	-0.25200504
155	0x3dd0e446	0.1019979
156	0x3dc8d0cf	0.09805452
157	0x3e3c9e35	0.18419726
158	0xbd992df9	-0.07479472
159	0xbe5f9bef	-0.21836828
160	0xbe83e9d5	-0.25764337
161	0x3c1bf185	0.009518032
162	0xbecaf075	-0.3963658
163	0xbed33da6	-0.41257972
164	0x3ec94920	0.39313602
165	0xbe59b35e	-0.2125983
166	0xbe0fcaca	-0.14042202
167	0xbd465f22	-0.04843057
168	0x3d6ddefd	0.058073986
169	0x3f03037a	0.5117718
170	0xbd97ab16	-0.07405679
171	0xbef5af0f	-0.47985122
172	0x3dca3f37	0.098753385
173	0xbcae947b	-0.021311035
174	0x3e42f5b4	0.19039041
175	0xbcbf18a2	-0.023327176
176	0x3e11c647	0.14235793
177	0xbd78b4ce	-0.060719304
178	0x3e658ad2	0.22416237
179	0x3d496236	0.049165927

0.bias f4 [10]
0	0x3f83cb7e	1.0296476
1	0x3e2264b5	0.15858729
2	0xbc0517dd	-0.008123365
3	0x3e572803	0.21011357
4	0xbebbb20c	-0.36659276
5	0xbe95554e	-0.29166645
6	0x3f13a757	0.57677215
7	0xbe1302dd	-0.14356561
8	0x3ececae0	0.40389156
9	0x3f5aa0dd	0.8540171

2.weight f4 [8, 10]
0	0x3f6bb54c	0.9207351
1	0x3edd785a	0.43255883
2	0xbf7b50ca	-0.9817015
3	0xbf82b29b	-1.0210756
4	0x3f687bb0	0.9081373
5	0x3f4921db	0.78567284
6	0xbf17c6cd	-0.5928772
7	0x3f716759	0.9429832
8	0x3f32ce62	0.69846165
9	0x3f458a88	0.77164507
10	0x3efc1526	0.49234885
11	0x3e85580a	0.2604373
12	0xbea05f19	-0.31322554
13	0xbe926e46	-0.28599757
14	0xbee5c0e0	-0.44873714
15	0x3e8fb2c5	0.28066078
16	0x3dfe3f37	0.12414401
17	0x3ebfd481	0.37466815
18	0x3f56b9eb	0.8387744
19	0xbd1a4d79	-0.03767154
20	0xbe2a4b10	-0.16630197
21	0xbe1f8c44	-0.15580851
22	0x3e323cce	0.17406008
23	0x3dfcc580	0.12342358
24	0xbe89a132	-0.26880795
25	0xbe66978d	-0.2251875
26	0xbe98f99d	-0.2987794
27	0x3e93bcb6	0.28854913
28	0xbe801d32	-0.25022274
29	0xbe681f9b	-0.22668307
30	0x3f3a6f6a	0.72826254
31	0x3ea11a9a	0.31465608
32	0x3c89cd66	0.016821574
33	0xbee2b5ef	-0.4427943
34	0x3ebaf120	0.3651209
35	0x3edf0a98	0.4356277
36	0xbebffa0b	-0.37495455
37	0x3ec4b769	0.3842118
38	0x3f09d519	0.53840786
39	0x3ebc0415	0.36721864
40	0xbe48111d	-0.19537778
41	0x3e20d7ce	0.15707323
42	0xbe9d5c41	-0.30734447
43	0x3ddc1361	0.10745884
44	0xbe082987	-0.13297091
45	0xbd0d41f1	-0.034486715
46	0xbd4ab3b6	-0.049487792
47	0xbd44fe77	-0.04809424
48	0x3e36c326	0.1784788
49	0xbe9ffa9d	-0.3124589
50	0xbea704d7	-0.3262088
51	0x3d737b23	0.059443604
52	0xbdc0b4a4	-0.094094545
53	0x3ef61a33	0.48066863
54	0xbca30c13	-0.019903218
55	0xbe20ae5b	-0.15691511
56	0x3f751236	0.9573091
57	0xbcb4c73e	-0.022067662
58	0xbceaa2a5	-0.028642008
59	0xbea3b9d6	-0.3197772
60	0x3f39d3b3	0.7258865
61	0x3ec73b6d	0.38912526
62	0xbeaed4e0	-0.34146786
63	0xbe805e1f	-0.2507181
64	0x3e579462	0.21052697
65	0x3ebfa8ea	0.3743356
66	0xbebeb8a3	-0.37250242
67	0x3f3eac49	0.74481636
68	0x3ec04664	0.37553704
69	0x3f511d94	0.8168576
70	0x3f274404	0.6533816
71	0x3e3c1b75	0.18369849
72	0x3d027a32	0.031854816
73	0xbe800a19	-0.25007704
74	0x3eba01c4	0.36329472
75	0x3eeb71b3	0.45985183
76	0xbe90ab70	-0.28255796
77	0x3e9ac85f	0.30230996
78	0x3efac88e	0.48981136
79	0x3f15ec56	0.58563745

2.bias f4 [8]
0	0xbf4d834a	-0.80278456
1	0xbeca47b5	-0.39507833
2	0xbe14e8b7	-0.14541899
3	0xbf09107f	-0.53540796
4	0xbe8355f1	-0.25651506
5	0x3fd86dbd	1.690849
6	0xbf2a6c9c	-0.66571975
7	0xbf11b7d4	-0.56921124

4.weight f4 [2, 8]
0	0x3fc8a84b	1.5676359
1	0x3f6f08f7	0.93373054
2	0xbe5b5497	-0.21418987
3	0x3f6d586a	0.92713034
4	0xbd761096	-0.06007441
5	0xbfba500f	-1.4555682
6	0x3f8faada	1.1224015
7	0x3f51279f	0.8170108
8	0xc008a580	-2.1351013
9	0xbf4ba51b	-0.79548806
10	0x3d79779c	0.060905084
11	0xbf83b18b	-1.0288557
12	0x3e9cc51b	0.3061913
13	0x3fa2c714	1.2717004
14	0xbf9981cd	-1.1992737
15	0xbf790e0a	-0.97287047

4.bias f4 [2]
0	0xbfe0b2d3	-1.7554573
1	0x3fe94453	1.8223976
