Damage/damage.pth (torch, 37327 bytes, 8 tensors)

0.weight f4 [60, 35]
000000 57 c7 9c 3d ea e9 97 3c 67 3b a4 bd 81 e8 90 bd
       0.076552086 0.018544156 -0.080191426 -0.070755966
000010 ec b1 f5 3d 4b 8d e1 bd da 7d cb bd b4 e9 7c bd
       0.119968265 -0.110132776 -0.09936114 -0.061746314
000020 47 5b f9 3d 54 9b 01 bc 83 28 e2 3b d6 e7 aa 3c
       0.12175613 -0.007910568 0.006901802 0.020862501
000030 a7 2f 26 bd a7 fd 5b bd 2d 5d a8 3d f7 7b 36 3b
       -0.04057279 -0.0537087 0.08220897 0.0027844885
000040 93 96 ae bd 9f 0f 24 3e 44 4c 35 3d 38 f8 03 3d
       -0.085248135 0.16021584 0.044262186 0.03221914
000050 3f e7 29 bd d0 bf 1a bd 10 60 df 3d 50 6b 8d bc
       -0.0414803 -0.037780583 0.10906994 -0.017263085
000060 03 8e 56 3d 07 9f 6d be 1f 6b 4f 3d 4b cb 5e be
       0.052381527 -0.23205195 0.050639268 -0.21757238
000070 19 d0 ff bd 89 98 88 3e 7d 7a 89 be 9b 59 27 be
       -0.12490863 0.26678875 -0.26851264 -0.16342776
000080 fb a5 04 3e ae cf 9e 3d 05 72 8b bc 63 1c 76 3d
       0.12953942 0.077544555 -0.017022142 0.060085665
000090 d3 79 00 bd 65 6e 11 3e ba b1 ec bb 45 77 9c bd
       -0.03136618 0.14202268 -0.007223335 -0.07639936
0000a0 36 3e b0 3c 57 02 44 3e 21 68 4f 3e 14 52 f2 3d
       0.02151404 0.19141518 0.20254566 0.118320614
0000b0 29 a6 f8 3d 17 04 67 be 30 64 5d be 53 42 dd bd
       0.121410675 -0.22560154 -0.2162025 -0.10803666
0000c0 87 b4 42 bd 2b 38 d9 bc ed cc d7 3c dc bb 67 bc
       -0.047535446 -0.02651604 0.026342833 -0.01414391
0000d0 19 ad 0a be 03 c2 99 bd a7 3d 3d be 47 60 9e bd
       -0.13542594 -0.07507708 -0.1848055 -0.07733207
0000e0 5b 1f bc bd eb bf 56 be ab ee c3 3c 9f 72 09 3e
       -0.09185668 -0.20971648 0.023917517 0.1342263
0000f0 c6 ba bb 3d 2e aa 11 be 38 e8 dc bd 66 aa 5a 3d
       0.091664836 -0.14225075 -0.1078648 0.05338516
000100 ad 98 0a bd 23 01 74 3e 04 61 9c bb 14 78 c5 3d
       -0.03383701 0.23828559 -0.0047723074 0.09642044
000110 33 b2 60 be c6 8b 72 3c 5f 35 8f 3d 48 ee 0e 3e
       -0.21942978 0.014803832 0.069926016 0.13958085
000120 09 45 db 3d 58 8f 97 3d 4c 34 02 3e 11 38 59 3d
       0.10706527 0.074003875 0.12715262 0.053031985
000130 9f e2 c4 3d 3c 3c 56 be 5d ab 25 be 34 41 12 be
       0.09613537 -0.20921415 -0.16178651 -0.14282686
000140 02 c5 1d be d7 41 b0 3d 24 99 47 be 82 6e 31 3e
       -0.15407184 0.08606308 -0.19492012 0.17327312
000150 7b 95 71 be 72 fc 06 3d 3b ce 38 be 73 e2 3c bd
       -0.23592179 0.032955594 -0.1804742 -0.046114396
000160 de 77 35 3e ca 04 dd 3d 24 f9 ae 3d 51 fb d8 3d
       0.17721507 0.10791929 0.085436136 0.1059481
000170 e1 12 1d bd ca dd 31 be 19 91 b3 bd 92 3f 40 be
       -0.038348082 -0.17369762 -0.087679096 -0.1877425
000180 74 a4 29 be cd bb 1d be c6 b2 ba bc bb af 46 3c
       -0.1656664 -0.15403672 -0.022790324 0.012126858
000190 2d fe 2d 3e d9 88 3a be bd 67 21 3e e3 60 76 3d
       0.16991492 -0.18216266 0.1576223 0.060150992
0001a0 e2 56 f8 3d 97 39 49 be 47 1f 11 3d f0 60 50 3e
       0.121259466 -0.19650875 0.03543022 0.20349479
0001b0 04 70 42 3e 6a c5 ef bd f2 9e b2 3c f1 79 d5 3d
       0.18988043 -0.117075756 0.021804307 0.10423649
0001c0 93 ca aa bd 07 35 dd bc 50 87 ad 3d bd 3b 9d 3c
       -0.08339419 -0.027002824 0.084730744 0.019193524
0001d0 19 74 5e be d4 9c 6d 3d 8a ec 94 3c 03 45 fc bd
       -0.21723975 0.05801089 0.018179197 -0.123178504
0001e0 39 6b f1 bd b4 1f 8f bd b5 c1 46 bd 13 7e 24 3e
       -0.11788029 -0.06988469 -0.048524577 0.16063718
0001f0 cd f4 3a be 50 51 bd bd 73 fe 99 bc e5 1c 76 bd
       -0.18257447 -0.09244025 -0.018798089 -0.06008615
000200 e5 de 23 3d 6a 71 8e bd dd 93 5c 3d e6 a9 b9 3d
       0.04000749 -0.06955226 0.05385195 0.09065609
000210 4e 60 cf bb 8e 41 81 3d 08 79 65 be ec 4a 96 3d
       -0.006328619 0.06311332 -0.22409451 0.07338509
000220 ec f3 01 be 62 a2 a7 bd 13 8e 5d 3c 62 cd 8f 3c
       -0.12690705 -0.08185269 0.013522643 0.017553989
000230 26 1c 3b bd 03 6d 91 bd 4b 51 3b bd 27 bc 25 bd
       -0.04568114 -0.071008705 -0.045731824 -0.04046264
000240 ca 27 3a bb d3 ce cb bd 8d ec 8b bd e4 b2 0f be
       -0.0028405064 -0.09951558 -0.06832228 -0.14033085
000250 81 2c 12 3e 92 59 3c 3d 2c 86 96 3b 06 90 36 3d
       0.1427479 0.04598386 0.0045936313 0.044570945
000260 21 c7 79 bd 5c f1 3d be 76 9f bd 3d e2 67 69 be
       -0.06098092 -0.18549103 0.092589304 -0.22793534
000270 07 17 c8 bb e7 5d 37 be 52 d7 42 bd 64 b4 16 3e
       -0.0061062607 -0.17906915 -0.047568627 0.14717251
000280 81 87 17 3e fe f8 88 3d f5 bf 0b be a2 23 52 3d
       0.14797784 0.066881165 -0.13647445 0.051303513
000290 83 8f 9a bb dc 66 3a be c7 76 f1 bc 10 e3 37 3e
       -0.004716815 -0.182033 -0.029475583 0.17957711
0002a0 e3 82 75 be fa 5b 6a be 03 40 7d 3e de f1 46 be
       -0.2397571 -0.22886649 0.2473145 -0.19428203
0002b0 fa 22 34 bb 2f f2 f2 3d e1 c2 bc bd f5 5b 80 bc
       -0.0027486668 0.11862599 -0.09216858 -0.015668849
0002c0 e7 9c c3 3d 00 0b d1 3d 7c 14 da 3b 41 e3 03 be
       0.09551411 0.10207176 0.006655274 -0.12879659
0002d0 5d 2f 72 3d 9f 60 19 3d d8 e5 d9 bd 48 54 32 3d
       0.0591272 0.03744566 -0.10639542 0.043537408
0002e0 24 0d 86 3d f7 7b 8c bd 37 cd 28 be 2a ab 30 bc
       0.06545475 -0.06859582 -0.16484533 -0.010782996
0002f0 71 1e b3 3a b3 45 d3 3d 9c 83 a9 3c a3 f5 b1 3d
       0.0013665688 0.103160284 0.020692639 0.086894296
000300 44 ab 99 bd a8 4c f3 3d f1 0b c0 3c 59 a2 76 bd
       -0.075033695 0.118798554 0.023443194 -0.06021342
000310 5b b7 85 bb 28 5d 18 bd b2 2a d8 3d 0f 60 cb bc
       -0.0040806956 -0.037198216 0.105550185 -0.024826078
000320 6e 7e 12 3d a2 49 48 b9 24 c8 b0 3e a0 21 9d 3e
       0.035765104 -0.00019100917 0.34527695 0.30689716
000330 ab 18 6c be 1d d6 1c be 0c 87 5e 3e aa f6 4c 3d
       -0.23056285 -0.15316053 0.21731204 0.050039925
000340 e2 c2 3b 3d fd e6 33 be ab ff 79 3e 5f 14 87 be
       0.04584015 -0.17568584 0.24413936 -0.2638273
000350 0d 6b 8a 3c de 2c 62 bd 72 f9 53 be 4d 3d 76 be
       0.016896749 -0.05521857 -0.20700625 -0.24046822
000360 87 2a 06 3d 12 63 26 be ed 74 d9 bd fb 4d 94 bc
       0.0327554 -0.1624873 -0.10618005 -0.01810359
000370 49 d3 c6 bd db 2d 36 3d a9 ca 21 bc 97 a7 2d 3e
       -0.09708268 0.044477325 -0.009874978 0.16958462
000380 56 c8 90 3d e9 94 d0 bd 51 01 32 bd 80 5c ed 3b
       0.07069461 -0.10184652 -0.043458287 0.007243693
000390 75 1c 49 be 53 e8 88 3e 07 73 34 3d 61 1d 4c be
       -0.19639762 0.2673975 0.04405501 -0.19933082
0003a0 92 2e 73 3e 39 1e 1a be 61 7b 3d bd 63 3f b3 3d
       0.23748234 -0.15050592 -0.04626024 0.087523244
0003b0 ad be c4 3d b3 46 cc 3d d2 9e 89 be 88 b2 0a be
       0.09606681 0.09974422 -0.26878983 -0.13544667
0003c0 0f 5b bd 3d 3f 1f 4b be 7f 3b 4f 3e 71 4a 4a be
       0.09245884 -0.19836138 0.2023754 -0.1975496
0003d0 5a 7f 11 3e ec 9c 96 bd 8d 58 23 3e c7 df fe bd
       0.14208737 -0.07354149 0.15951748 -0.12445026
0003e0 87 89 22 3e 69 67 21 be 4b 64 80 3d 36 8b 07 3e
       0.15872775 -0.15762104 0.06269129 0.13236699
0003f0 04 86 74 3d 87 d6 35 bd 81 49 3d 3d 7c 7f 89 3d
       0.05969812 -0.044394042 0.046212677 0.06713769

0.bias f4 [60]
000000 0f e0 47 3e 0f 38 83 3e a3 bc 46 bc 37 26 5e bd
       0.19519065 0.25628707 -0.012129935 -0.054235663
000010 ed 3c 40 3e 22 31 30 3e 40 47 a5 bc a4 dd 79 3e
       0.18773241 0.17206243 -0.020175576 0.24400955
000020 64 f9 5e 3e cb 5e 7a 3e 2a 5a 78 3d 56 bd 20 3e
       0.21774822 0.24450223 0.060632862 0.15697226
000030 f5 41 c1 3d 9f a0 1c 3e eb f9 22 3d 61 38 ca bb
       0.094364084 0.15295647 0.03978912 -0.0061712717
000040 ad 2e 66 bd ee 11 5d bc 3c ee 41 3e 61 9c 34 bd
       -0.056196857 -0.013493044 0.18938535 -0.044094447
000050 c0 a1 2c 3e 5c 6d b1 3d 02 2c 03 3c b9 14 07 3e
       0.16858578 0.08663437 0.008006098 0.13191499
000060 b2 24 a4 3c c2 cb 23 3e 66 0b 57 3e b0 a7 57 3e
       0.020037029 0.15995696 0.21000442 0.21060061
000070 11 3c 85 bd 65 11 bc 3d d4 5a b1 3d 38 5d fc 3d
       -0.065055974 0.09183005 0.08659902 0.123224676
000080 6b 1d 32 3e c4 ed 74 bc 6a 3d 87 3d 4f 8e 55 3e
       0.17394035 -0.014949266 0.06603511 0.20855068
000090 fa 81 48 3d d1 4a 66 3e 2a a9 84 3e 84 18 21 3e
       0.04895208 0.22489478 0.25910312 0.15732008
0000a0 af 5c 10 3e 9e 60 7b 3e 81 43 10 3e 9f 74 7d 3e
       0.14097856 0.24548575 0.1408825 0.24751519
0000b0 8c 86 67 3c 93 ea 6f bd 76 63 fc 3d 0c 01 6e bd
       0.0141312 -0.058573317 0.12323658 -0.058106467
0000c0 b6 04 da 3d cd 0a 37 bc dc 38 88 bc 54 88 d0 3b
       0.1064543 -0.011172009 -0.016628675 0.006363908
0000d0 5f 43 80 3e b4 6c 3d 3e e9 76 06 3e 43 8d 44 3e
       0.250514 0.18498498 0.13131298 0.19194512
0000e0 ac 0f ef 3d 5a 55 26 bc 8f 88 46 3e 27 08 90 bd
       0.11672911 -0.010152185 0.1938803 -0.07032805

2.weight f4 [70, 60]
000000 2a 17 3f 3e e5 ee 70 bd 9e 17 06 3e 64 7f 48 3d
       0.1866118 -0.058821578 0.13094947 0.048949614
000010 72 15 60 bc e6 8d fa bd da 4b ba 3d db 96 d5 bb
       -0.013676988 -0.12234096 0.09096499 -0.0065182275
000020 9c ad 02 3e 30 27 ce 3b 74 b9 2c 3e f0 06 b5 bd
       0.12761539 0.0062912926 0.1686762 -0.08839214
000030 f3 96 99 bc 7e f1 e3 3d 97 74 3d 3d c2 06 3c 3e
       -0.018748736 0.11130045 0.046253767 0.18361953
000040 c3 90 74 3d 9a f9 67 3d 8a 11 ad bd 2f 8f f5 3a
       0.059708368 0.056634523 -0.08450611 0.0018734689
000050 65 eb 0e 3e 4c 33 09 bd 1e 66 ad 3c bd 48 eb bc
       0.13956983 -0.033496186 0.021166857 -0.028721208
000060 e1 85 34 3e 98 2f 10 3e e1 65 38 bc 8a 49 d4 bd
       0.17629196 0.14080656 -0.011254759 -0.10365589
000070 9a 8f 86 3d da 51 af 3d f8 02 41 bd 19 b2 18 3d
       0.065703586 0.08560534 -0.04712197 0.037279222
000080 ea cd c5 bc d5 86 db 3d 39 d1 2f bd 4a 59 6d 3d
       -0.024146039 0.107190765 -0.04292414 0.05794648
000090 b2 8e 37 bc 13 3f 17 3e d8 25 13 3e bd c5 31 3e
       -0.011203455 0.14770155 0.14369905 0.17360587
0000a0 75 95 04 be 7f e6 5d 3d 47 8d 18 3e 87 cf 30 3e
       -0.12947638 0.054174896 0.14897643 0.17266665
0000b0 b9 51 37 3e 85 da aa 3d 2f 9d 4e 3e 98 f1 1d 3e
       0.17902268 0.083424605 0.20177148 0.15424192
0000c0 cd 1d 2f 3b 83 2f f5 bc 82 c0 76 3d 92 17 0f 3e
       0.0026720644 -0.029929882 0.060242184 0.13973835
0000d0 a4 25 c3 3c bb e6 0b be dd 89 34 bd 45 35 0e bd
       0.02382166 -0.13662235 -0.04407679 -0.03471877
0000e0 59 c6 0c 3e c6 1b 83 3d 82 5c 34 3e 9d 94 2a 3e
       0.13747539 0.06401782 0.17613414 0.16658254
0000f0 25 a2 dc bd 68 fc f4 3b 81 39 d0 bb 43 90 27 3d
       -0.10773114 0.007476378 -0.0063545112 0.040909063
000100 e9 43 11 3e 2e 5e 1c be 00 73 30 3e 29 5b 9b bd
       0.14186062 -0.15270302 0.17231369 -0.07585747
000110 00 1f 1f 3e c4 ea d1 3d 54 c5 10 bd 54 18 5c 3d
       0.1553917 0.10249856 -0.035344437 0.05373414
000120 4d ba b0 bd 06 24 71 3d bc 19 10 bc 37 47 48 bd
       -0.08629284 0.058872245 -0.008795198 -0.04889604
000130 0f 99 15 3d c9 64 af bd 49 5f c1 3d 3f 14 ee bd
       0.03652292 -0.08564145 0.09442002 -0.116249554
000140 b3 6f bb 3c a7 1c c3 3d 67 d8 7f 3d 30 6d 61 3d
       0.02288041 0.095269494 0.062462237 0.05503577
000150 c1 94 8e 3d 35 e6 89 bd 6c 20 4f 3d 53 50 13 3d
       0.06961966 -0.06733362 0.05056803 0.035965275
000160 24 e2 2c be 20 53 59 3e b0 07 af bd 8a 8f 7d 3c
       -0.16883141 0.21223116 -0.08546388 0.015476117
000170 5d 3d 0f 3e 64 f3 cc bd fe 06 14 3e 09 82 14 3e
       0.13988252 -0.100073606 0.14455792 0.1450273
000180 a5 5b 0e 3e 38 ce 8e 3d b3 55 3f 3e b8 99 8d 3d
       0.13902147 0.06972927 0.18685035 0.06914085
000190 15 44 b1 bd 8b 53 06 3e e2 31 0f 3e cf 7f 07 bd
       -0.08655564 0.13117807 0.13983873 -0.033080872
0001a0 82 c0 45 3e 1c c6 c6 bc 1f a9 19 3d fb 02 ce 3d
       0.19311717 -0.024264388 0.037514802 0.10059162
0001b0 21 43 f8 3d 92 45 12 3e b7 1c de 3d 25 36 e1 3c
       0.12122179 0.14284351 0.10845321 0.027491638
0001c0 ef 33 06 3e 53 00 bb bc a3 74 f7 bd cb 99 b6 3d
       0.13105749 -0.022827303 -0.120827936 0.089160524
0001d0 81 d7 bc 3c a9 65 49 bc aa 58 6d 3d 76 87 3f 3c
       0.023051979 -0.012292304 0.057945885 0.011690011
0001e0 9f 7d f2 3d 1d 3d de 38 c2 a5 88 3d 36 1f 6e 3e
       0.118403666 0.00010597168 0.06672241 0.23254094
0001f0 ed f5 4b 3e c4 f1 ea bc b8 c2 e7 3d c7 9f b0 3c
       0.19918032 -0.028679736 0.113164365 0.021560563
000200 3b e5 55 3d 67 9c 20 3e 87 03 33 3d 7b a1 19 3d
       0.052220564 0.15684663 0.043704536 0.037507515
000210 a9 61 b3 bd 8f 31 16 3e fb 1e 20 be 93 4b a1 3d
       -0.087588616 0.14667343 -0.15636818 0.07875743
000220 ad d5 1c 3e f0 07 86 bd d3 08 21 bd 07 3a 02 3e
       0.15315886 -0.06544483 -0.039315056 0.12717448
000230 b9 40 ef bc fd b6 21 3c 00 a0 e7 3d 97 ab ed 3d
       -0.029205667 0.009870288 0.113098145 0.11604994
000240 20 26 08 3e 47 45 32 3c 8d 75 88 bc 58 e8 f7 bd
       0.13295794 0.010880775 -0.016657615 -0.12104863
000250 00 ef 7a bd 27 24 59 3d ea 1a c2 3c 69 59 0d bd
       -0.061263084 0.053012993 0.023694474 -0.034509096
000260 ef 92 59 bc c2 b7 c3 3d 2a 18 28 3b bc 6c ed 3c
       -0.013279661 0.095565334 0.0025649169 0.028982513
000270 24 f1 6f 3d c2 6a 47 3e 3b 55 58 3e f1 5e e5 3b
       0.05857958 0.19474319 0.21126263 0.0069998433
000280 30 03 12 be 7b fa a8 3d 26 da c8 bc 1c 69 2e 3e
       -0.14259028 0.082509 -0.024518084 0.17032284
000290 77 8f af 3d 93 07 ca bc b6 b4 03 3e 00 89 8c 3c
       0.085722856 -0.024661815 0.12861905 0.01715517
0002a0 87 1b 0b 3d 02 d2 ff bd 38 7e 2a bd 51 9b db 3d
       0.0339618 -0.12491228 -0.041624278 0.10722984
0002b0 c2 2f d5 3d 28 5f 38 be ee 67 f1 bc c1 d3 14 3e
       0.104095 -0.18005049 -0.029468503 0.14533903
0002c0 d8 a9 35 3e cd 64 73 3e 58 56 64 3d 95 07 78 bc
       0.17740571 0.23768921 0.055746406 -0.015138526
0002d0 ae 9b 3d 3c d2 b0 47 3d 51 be 11 3e e4 59 4c bd
       0.011572761 0.048752613 0.14232756 -0.049890414
0002e0 12 6f d8 3d 35 58 a6 bc 49 a8 b7 bd f5 dd 1c 3e
       0.1056806 -0.020305732 -0.08967645 0.15319045
0002f0 2e a5 9b 3d 5d c5 3b 3e 24 a2 93 bd 5e 15 13 3e
       0.07599865 0.18337007 -0.0720866 0.1436362
000300 af 79 12 3e b6 e7 bd b9 72 8f f5 bd be fe 11 3b
       0.14304231 -0.00036221527 -0.11990251 0.0022277082
000310 2d 18 7a bd ea 17 22 be 8e 07 b5 bd f5 27 7d 3d
       -0.061058212 -0.15829435 -0.088393316 0.061805684
000320 ad c2 e0 bc 4f c5 c2 3d fd ca 71 3e c2 31 b6 3d
       -0.027436579 0.0951029 0.2361259 0.08896209
000330 18 0e 22 3e 26 6c d8 3d 17 c9 02 3e 46 ca 42 3e
       0.15825689 0.10567503 0.12772022 0.19022474
000340 b3 8c e6 3d fc 4c 41 3e a6 37 d5 3d 34 84 34 bd
       0.11257305 0.18877023 0.10411005 -0.04407139
000350 34 b2 9e bc 31 fe 05 3c 26 14 bd 3d 9e c9 fe 3d
       -0.019372083 0.00817828 0.09232359 0.12440799
000360 70 1d db 3d ca 4d 30 3e d8 21 3a bd bc 79 02 3e
       0.10698974 0.17217174 -0.045442432 0.1274175
000370 b2 99 6c bd a6 c1 1d 3e 31 ab aa 3c a7 bc 88 3c
       -0.057763763 0.15405902 0.020833584 0.016691519
000380 4c b6 06 bc 42 78 e2 bd 3f e4 04 be b7 43 2f 3e
       -0.008222174 -0.110580936 -0.12977694 0.17115675
000390 d0 32 51 3c 26 e0 12 3e e0 8d 14 3d e4 77 f8 3c
       0.012768462 0.14343318 0.036268115 0.030330606
0003a0 ee 7e 8d bd f3 02 da bd 8c 19 51 3e 96 e6 96 bc
       -0.069089755 -0.10645094 0.20419902 -0.018420499
0003b0 6d d3 8e bc b6 1a fa bc 6d 46 58 3d 7c 71 ca bd
       -0.0174348 -0.030530315 0.05280154 -0.09884927
0003c0 59 c7 b2 bd 1b 61 d1 3d c0 ad 68 3d 26 88 83 bd
       -0.08729429 0.102235995 0.056806326 -0.06422453
0003d0 a0 59 80 3c 1c f1 f3 3d 59 fd c9 3c 03 6f cd 3d
       0.015667737 0.11911222 0.024656938 0.100309394
0003e0 8c 25 c2 3d 4b 95 19 3e fd 59 69 3d 05 90 27 3d
       0.09479818 0.14998357 0.056970585 0.040908832
0003f0 1b 68 6f bd 7a ec c9 bb 0c d5 0a 3d df 32 81 3d
       -0.058448892 -0.0061622234 0.033894584 0.06308531

2.bias f4 [70]
000000 5f 07 40 bd 60 8e bc 3d 47 a9 29 3e 34 ad aa 3d
       -0.04688203 0.092068434 0.1656848 0.08333817
000010 68 fc e0 3d c1 8a 8d 3b ae f0 06 3c 5c 0a f6 3d
       0.10985643 0.0043195193 0.008236093 0.12013695
000020 ec bf 1d bd df c6 cc 3c 3a d5 90 3d da bf 97 3b
       -0.03851311 0.024997173 0.0707192 0.004631025
000030 c7 87 67 3d 18 f9 25 bd 7b cc 02 3d 4c 24 31 3e
       0.05652597 -0.040520757 0.03193329 0.17299002
000040 bb c1 d1 3d 64 22 00 3e b8 b5 ce bb 5a 3d 11 3e
       0.10242029 0.12513119 -0.0063082837 0.1418356
000050 2a a7 e8 3d 7e aa 0d 3e a5 ad 08 3d a8 73 36 3e
       0.11360009 0.13834569 0.033368725 0.17817557
000060 ca 8f 5f bd 3f 42 ef 3c 49 4e 84 3d 85 bc c7 3d
       -0.054580487 0.029206393 0.06460244 0.09752754
000070 9a 1b d8 bc 12 82 fc 3d e3 9d 9d 3c 73 b9 87 3d
       -0.026380349 0.123294964 0.019240325 0.066271685
000080 a9 a5 41 3e 59 34 25 3e 18 e3 b5 bc 2d 51 f1 3d
       0.1891085 0.1613325 -0.022203013 0.11783061
000090 59 8f 08 3e e6 64 92 3d 73 b0 89 bd 2a 6d 37 bd
       0.13335933 0.07148151 -0.06723108 -0.04478184
0000a0 f5 e3 0b 3e 89 4e 11 3e 79 15 ea bd 26 f1 18 3e
       0.13661177 0.14190115 -0.11429877 0.14935741
0000b0 1c 17 da 3d f6 12 a4 bd 28 ae 84 bc 50 fc db 3d
       0.10648939 -0.08011429 -0.016196325 0.10741484
0000c0 fb 5c 69 3c bf 6e b7 3d 33 80 c1 bc 27 f6 86 3d
       0.01424336 0.0895667 -0.0236207 0.065899186
0000d0 89 ad 68 3c fe 93 f0 3d 9a 66 63 bc 26 d7 45 bd
       0.01420153 0.11746977 -0.013879443 -0.048300885
0000e0 2d 0d 15 3d 91 ea f1 bb 3d 6f 01 3e a8 ff 0d 3e
       0.03638952 -0.007382699 0.1264009 0.13867056
0000f0 7c 83 fc 3d 01 fd a7 3c 92 af cc 3d e8 a2 83 bd
       0.12329766 0.020506384 0.09994425 -0.06427556
000100 f9 9f 31 3d 1e 17 07 3e 7c d2 e6 3d 74 c9 ff 3d
       0.043365452 0.13192412 0.112706155 0.12489596
000110 40 a1 26 3b 3e 4d 78 3d
       0.0025425702 0.06062054

4.weight f4 [30, 70]
000000 79 3f b6 3d c7 2f d9 3d 64 46 00 3e fa eb b3 3d
       0.08898825 0.10604816 0.12526852 0.08785243
000010 c3 ea d8 3d be a6 62 3c f6 1d 66 bc 01 7b 83 3d
       0.10591652 0.0138337 -0.014045229 0.064199455
000020 57 0c cd 3d 7c 1c 09 bc f5 75 c1 3d 5d 7a e6 3d
       0.10012119 -0.008368608 0.09446327 0.11253808
000030 4a 34 1f 3e 83 bd a0 3d 3f 90 4a 3e 25 d4 16 3e
       0.1554729 0.078486465 0.19781588 0.14729364
000040 5c 08 19 bd e4 ee 36 be da 8a 00 3e 74 49 2f 3e
       -0.037361488 -0.17864567 0.12552968 0.17117864
000050 46 47 ab bd e1 d2 94 bd f1 bb ee bd db 9b eb bd
       -0.08363204 -0.072667845 -0.11656941 -0.115043364
000060 99 05 24 3e 22 9f 39 3e b4 d1 94 3d dd 59 f2 3c
       0.1601776 0.1812711 0.0726656 0.029583866
000070 bb f8 cc bd be 0c 69 bc d1 ee 39 3e af 7d 23 3d
       -0.10008379 -0.014224229 0.18157507 0.039914783
000080 79 01 41 3d 93 43 ca bd 06 85 62 3d f4 c7 23 3e
       0.047120545 -0.0987617 0.055302642 0.15994245
000090 8e a4 80 bc 17 34 59 3e fd f6 36 3e e6 46 7d 3c
       -0.015703466 0.21211277 0.17867656 0.015458798
0000a0 0d 93 26 be 8e c4 69 3e 7b 1c b2 3d a3 a5 f5 bc
       -0.16267033 0.22828886 0.086968385 -0.029986208
0000b0 8e ea 3a 3e 57 34 0c be d5 f5 ff 3d 02 5f e0 bc
       0.18253538 -0.13691841 0.124980606 -0.027389053
0000c0 ed 92 26 3e 53 f8 ee 3d ef ba 54 bd 63 f1 18 be
       0.16266985 0.11668458 -0.051936086 -0.14935832
0000d0 61 46 b6 bd eb 0b 3c 3d c6 46 6a bd 54 3d c6 3c
       -0.089001425 0.045909803 -0.0571964 0.024199165
0000e0 e8 38 c0 3d cd a3 72 bb 6f 0f 72 bd 95 cc 1a 3c
       0.09385854 -0.0037023902 -0.05909675 0.00944819
0000f0 bb 09 b0 bd 22 e3 06 3e 69 7b 18 be 4f d1 78 3d
       -0.08595606 0.13172582 -0.14890827 0.060746487
000100 bc 01 22 3d 40 a7 cf 3d 81 60 0c 3d 84 1b ea bb
       0.039552435 0.10139322 0.03427172 -0.0071443934
000110 30 79 3c 3e f2 06 00 bc 11 09 3d 3d 60 b0 2f bc
       0.18405604 -0.007814156 0.046151225 -0.010723203
000120 e1 ee d9 3c 96 81 96 bc 80 d3 28 3e f9 34 0c 3e
       0.026603164 -0.018372338 0.16486931 0.13692082
000130 c3 66 48 3e 6f f5 52 3e 52 37 2a 3e b7 34 29 3e
       0.1957045 0.20601438 0.16622666 0.16524015
000140 e6 d4 30 bb bc a1 41 be b5 1b 42 bd 2d af 9f bd
       -0.0026982366 -0.18909353 -0.047389705 -0.07797084
000150 17 37 8a 3d 83 a2 41 3e e3 58 2b 3e 52 f2 5f 3e
       0.06748789 0.1890965 0.16733126 0.21869782
000160 02 94 37 bc 7f b1 7c 3d 08 e3 09 3e 0f 3b 39 3e
       -0.011204721 0.06169271 0.13465512 0.18088935
000170 95 7c 78 3d f5 f8 07 3e ed cb 8e 3d 89 e0 2d 3e
       0.060665686 0.13278563 0.069724895 0.16980185
000180 6d c2 3b bd 04 61 c0 3b c2 1c 33 bb 77 e9 5d bc
       -0.045839716 0.00587094 -0.0027330373 -0.013544432
000190 15 c9 f8 3d 71 ba c1 bc cc 9f c3 3d 82 45 1d be
       0.12147728 -0.023648473 0.09551963 -0.15358546
0001a0 fa b7 db bd 04 f5 cd 3d 3a 6c a9 3d b1 ed c9 3c
       -0.1072845 0.10056499 0.08272596 0.024649473
0001b0 f5 ff 2a 3e 1a 15 8f 3e ce 22 58 3e 3e c3 62 be
       0.16699202 0.27945787 0.21107027 -0.22144791
0001c0 4a 93 29 3d 23 d3 b7 3c 9d a5 00 3e f4 df dd 3b
       0.04140023 0.022439545 0.12563176 0.006771082
0001d0 55 9a b2 3d 1b 74 2f bd 49 dc df bb f5 87 6c 3d
       0.08720843 -0.042835336 -0.00683168 0.057746846
0001e0 8f 9a af 3d fd 70 3a 3e 66 60 06 bd 19 c3 84 3d
       0.085744016 0.18207164 -0.032806776 0.064825244
0001f0 b6 83 78 3d a9 a0 be bb 86 35 e8 3d b9 66 0e 3e
       0.060672484 -0.005817492 0.11338334 0.13906373
000200 9c d8 3a be cd 6c 25 3c c5 08 4e be 41 7a 76 bd
       -0.18246692 0.010096741 -0.20120533 -0.060175184
000210 a9 bb 94 be 52 88 d0 3d 6d 6e 4e bd 20 65 18 3a
       -0.29049423 0.10182251 -0.05039828 0.00058134086
000220 6f 13 19 be 5b cb e1 3a 5e ff 72 3d cc cd e5 3d
       -0.1494882 0.0017226742 0.05932557 0.11220893
000230 08 4c 09 3c 70 e9 c9 3d 85 68 96 3d f4 b7 cd 3d
       0.008379944 0.09858978 0.07344154 0.10044852
000240 13 de ca 3d 03 c0 8a bd 47 84 0f bd 99 79 92 bd
       0.099056385 -0.067749046 -0.03503826 -0.07152099
000250 ef 2a b3 3c 9e 72 89 3d 73 7d 9c 3d 02 1d 03 3e
       0.021871058 0.067113146 0.07641115 0.12804034
000260 e8 c0 f2 3d 2f 34 1e 3e 10 0c b9 3d d8 3a 77 bd
       0.118532 0.15449594 0.09035504 -0.060358852
000270 cb 9e 40 be 6a 3c 3f be 8c 90 27 bb 37 b2 28 3e
       -0.18810575 -0.1867539 -0.0025568334 0.16474234
000280 0c 59 27 be 5a 15 a9 bd d3 d4 4c be 82 2e 83 3d
       -0.16342562 -0.082560256 -0.20003061 0.06405355
000290 55 59 a8 bd 08 14 3d 3e 79 1b cc bc 15 8c bf bc
       -0.08220164 0.18464673 -0.024915444 -0.023382226
0002a0 33 b6 32 be 37 96 2a 3c 84 d3 3a 3e d8 bc ff 3d
       -0.17452316 0.010411791 0.1824475 0.12487191
0002b0 55 e2 fc 3d 4e 89 03 bd 0f 3b 48 3e 48 32 5c 3e
       0.12347857 -0.032113366 0.19553779 0.21503556
0002c0 63 9d e0 3b cc 96 47 3e 89 cc 43 bd 62 81 47 be
       0.0068546995 0.19491118 -0.04780248 -0.1948295
0002d0 e2 b8 d0 bd 43 86 4f 3e 27 c2 82 3d 6b 4e 9b bd
       -0.101915136 0.2026606 0.06384688 -0.075833164
0002e0 9e f9 81 3e 89 40 13 be d2 e2 c9 3d a1 f6 6d 3d
       0.25385755 -0.14380087 0.09857716 0.05809653
0002f0 82 e7 06 3e 34 92 33 3e cd 07 1e 3e 60 f8 00 be
       0.1317425 0.17536241 0.15432663 -0.12594748
000300 31 7b 91 bd bd 14 0f 3e 74 61 2f be ba 91 ac 3d
       -0.07103575 0.13972755 -0.17127019 0.08426233
000310 16 3e 2b bc fc e1 75 3e b3 37 20 3e 09 a1 44 be
       -0.010451814 0.24011987 0.15646248 -0.19202055
000320 14 d4 10 bd 6e 89 4c 3e ba b1 f4 bd 3d fe 73 3d
       -0.035358503 0.199743 -0.11947961 0.059568632
000330 58 f9 e0 3d 1f 3d dd 3d 32 ff bf 3b 92 b2 0f be
       0.109850585 0.108026735 0.005859279 -0.14032963
000340 19 87 38 3e 45 e6 3f 3e 1d f0 37 3e a4 6f 18 be
       0.18020286 0.18740185 0.1796269 -0.14886338
000350 43 39 b8 3d aa a7 95 3d 03 c8 f9 3c 26 ea d6 bc
       0.08995297 0.0730737 0.03049088 -0.026234698
000360 4b 72 57 be 0e 0c cd bd c2 d7 0e be 15 5e 04 3d
       -0.21039693 -0.10012065 -0.13949493 0.032316286
000370 2b e8 35 bc 26 db 4a 3d ee 29 4f 3e f9 76 47 3e
       -0.011102716 0.049525402 0.20230839 0.19478978
000380 8e 01 24 3e c8 f4 36 bd 4b 57 ef bd 99 66 b7 bd
       0.16016218 -0.044667035 -0.11686572 -0.08955116
000390 41 43 96 3d 55 90 21 3e 8c 74 47 be 07 c8 d1 bd
       0.073370464 0.15777715 -0.19478053 -0.1024323
0003a0 8b 59 9f bd b7 b9 1a 3c ca 7c 00 be d7 c7 02 3e
       -0.07780751 0.009443692 -0.12547603 0.12771545
0003b0 eb 25 dc 3d cd 40 fb bd bb 49 4a 3d b0 55 41 be
       0.1074942 -0.12268219 0.04938672 -0.18880343
0003c0 a8 7b 0b bd 21 3e 6a 3d e7 f0 99 3d d4 e9 b5 bc
       -0.034053475 0.057188157 0.075166516 -0.022206225
0003d0 7d 45 d1 3d a3 5f 55 3e bd fd 43 be 41 4e 9b 3c
       0.10218332 0.20837264 -0.19139762 0.018958213
0003e0 16 7e b9 3c c0 9d 05 3d 0e 79 37 be b3 28 2a 3e
       0.02264313 0.032621145 -0.17917272 0.16617088
0003f0 f6 73 de 3b e0 19 6b 3c 4b 12 11 3d d4 c6 2e 3c
       0.006788726 0.014349431 0.035417836 0.0106675215

4.bias f4 [30]
000000 0f 77 f8 3d c1 87 30 bd bd 07 e5 3d f9 b5 ef 3d
       0.121320836 -0.043098215 0.111831166 0.117046304
000010 66 5d 14 3d 43 23 a9 3c 35 f4 9f 3d 49 f5 dc bc
       0.036221884 0.020646697 0.07810251 -0.02697243
000020 4f a1 9a 3c 20 2c 45 bc d4 96 7f 3d 98 9d 85 bc
       0.018875746 -0.012034446 0.0623997 -0.016310498
000030 a7 40 86 bd 7e ef 1a 3d 90 33 f0 bc 68 65 19 3e
       -0.065553 0.037826054 -0.029321462 0.1498009
000040 a4 9b c5 3d 25 1e 79 bd a8 86 44 bd 6b eb 80 3b
       0.09648827 -0.060819764 -0.04797998 0.003934314
000050 0a 70 24 bd 54 10 67 3d 14 ce d3 bc 91 ed 59 bd
       -0.04014591 0.056412056 -0.025855102 -0.053205077
000060 91 b6 cb bc c1 b3 9f bd dc 47 83 bd 88 c9 cb bc
       -0.024867328 -0.07797957 -0.064101905 -0.024876371
000070 08 f8 79 3d 2c 3b 6f 3d
       0.061027557 0.05840604

6.weight f4 [5, 30]
000000 02 51 3b be ac 17 f6 3d d7 74 6d be 1e 70 68 3d
       -0.18292621 0.12016234 -0.23189102 0.05674755
000010 62 a3 5c be c0 bb 5c be fe aa 27 be 58 8e 2c be
       -0.215467 -0.21555996 -0.16373822 -0.16851175
000020 d2 e5 3d be fb 03 90 3e 62 eb e0 bd 8c 5c 59 3d
       -0.185447 0.28128037 -0.10982396 0.053066775
000030 57 a6 7d 3e dc 6d 0b 3e ba 8e 48 3e ab 2b 47 be
       0.24770485 0.13616127 0.19585696 -0.19450252
000040 cb 05 83 bd 83 0c 8a be e7 9e 43 be fb b2 a5 3e
       -0.06397589 -0.2696267 -0.19103585 0.32363114
000050 12 c0 84 3e 6b 67 ee 3d a3 59 06 be e2 db 1d bb
       0.25927788 0.11640819 -0.13120131 -0.002408736
000060 9f b0 17 3e 21 1f ce be d6 4c a2 be 42 07 72 be
       0.1481347 -0.40258124 -0.31699246 -0.23635581
000070 ec c7 06 3e cb 62 02 bd c0 a5 38 be 58 99 01 be
       0.13162202 -0.031832498 -0.18031979 -0.12656152
000080 b4 8f 53 be f8 6d 78 bd 60 d1 5f be ac 4f 2b be
       -0.20660287 -0.06065175 -0.21857214 -0.16729611
000090 9d 60 0e be 70 5c 1a be a5 17 08 3e 9e 75 03 3e
       -0.13904043 -0.15074325 0.1329027 0.12837836
0000a0 47 ab f8 3d 8c 34 36 3d 54 10 44 be a8 4a 70 be
       0.121420436 0.044483706 -0.19146854 -0.23465979
0000b0 23 b6 28 3e 6a 6b ae 3d 0e e6 ac bc 89 ea e6 3d
       0.1647573 0.08516581 -0.021105792 0.11275203
0000c0 b6 f7 3f 3e c6 6f 43 3e 96 eb 53 3c 20 7c 83 be
       0.18746838 0.19085607 0.012934586 -0.25680637
0000d0 01 0f 47 3e 99 e1 0b be d0 98 23 be 3b aa a5 3d
       0.19439317 -0.13660277 -0.15976262 0.080891095
0000e0 ed ec 96 3e 4a 4d 04 be 16 3c 6a 3e cc 62 1d 3e
       0.29477635 -0.12920108 0.22874483 0.1536972
0000f0 e1 8a 8a 3e 4a 6d d3 bd 86 d0 81 3e 37 03 62 3e
       0.2705908 -0.103235796 0.25354403 0.22071539
000100 23 c9 30 be ba ba 70 3d 17 e9 89 bc be fa 65 bd
       -0.17264228 0.058771826 -0.016834779 -0.05614733
000110 c1 90 6a 3e a0 81 91 be 97 1f 74 be 8e 58 66 3c
       0.22906782 -0.2841921 -0.23840176 0.014059199
000120 f5 fa 27 3e 40 3f 0d 3e 2b 33 d1 bd 08 81 5c be
       0.16404326 0.13793659 -0.10214838 -0.21533597
000130 51 b9 72 3e 79 db b2 bd 53 d3 11 bd f5 ca 12 3d
       0.23703505 -0.08733267 -0.035601925 0.035838086
000140 0b 6f 06 bd 2c 34 61 3d 93 68 83 be a2 60 5a 3b
       -0.032820743 0.054981396 -0.2566572 0.0033321758
000150 dd 1d a4 3c d6 5c 31 3e e8 e9 fa bd c4 86 d5 3d
       0.020033771 0.1732057 -0.12251645 0.10426095
000160 14 af 5b 3e ed 40 19 be 52 bb 3d 3e 77 62 4c 3e
       0.21453506 -0.14966173 0.18528488 0.19959436
000170 c3 ee 56 ba 66 bf 84 be 8b c2 e8 bd 35 22 ba 3d
       -0.00081990304 -0.25927275 -0.11365231 0.09088556
000180 9f 72 2e 3e 27 54 c4 bd 80 a8 21 3e c0 21 1c be
       0.17035912 -0.09586363 0.15786934 -0.1524725
000190 a7 28 3b 3e 93 81 82 3e 32 a8 c9 3d 53 28 c6 bc
       0.18277226 0.25489482 0.09846534 -0.02418915
0001a0 b5 ab ac 3d 5b 86 0f 3e ed a1 5a be 1d 45 12 3d
       0.08431188 0.14016096 -0.21350832 0.035710443
0001b0 4b b7 1a 3e a6 ab 4e be 79 88 84 be b3 64 7b 3e
       0.15108983 -0.20182666 -0.2588537 0.24550132
0001c0 75 41 6b 3d 44 20 8d 3e e1 d8 f7 bc 46 2a 90 be
       0.05743547 0.2756368 -0.030254783 -0.28157252
0001d0 bc 69 2a 3e 25 2e f8 3d f4 77 34 be 60 22 44 bd
       0.16641897 0.12118176 -0.17623883 -0.047884345
0001e0 8d 68 5f 3d 7b 61 3a 3e 1f 29 37 be d2 61 6a be
       0.054543067 0.18201248 -0.1788678 -0.22888878
0001f0 62 99 ac 3e ce 9b 70 be 37 38 0d 3e 8d 9e f8 3d
       0.33710772 -0.23496935 0.13790976 0.12139616
000200 6a f5 2d bd ec 5b 53 bd b6 49 5c 3d 34 96 77 3d
       -0.042470373 -0.051601335 0.053781234 0.06044598
000210 50 9c 91 be 46 b3 01 3e 19 85 a4 be 8b a5 3d 3e
       -0.2843957 0.12666044 -0.32132795 0.18520181
000220 1e 55 7a 3e 85 37 00 3c 8b 97 4f bd 01 2a 14 be
       0.24446532 0.007825737 -0.050681632 -0.14469148
000230 2d e1 91 3e 30 bf 8b 3d aa fe 30 3e 77 3b 64 bd
       0.28492108 0.068235755 0.17284647 -0.055720773
000240 e9 36 8d 3d c0 e9 cb bd c9 2e 8e 3d 35 5f 4a 3e
       0.06895239 -0.09956694 0.06942517 0.19762881
000250 67 45 1e 3d d4 17 11 3e
       0.038640406 0.14169246

6.bias f4 [5]
000000 92 49 04 be 19 e6 02 be 57 a1 36 be 13 d9 05 be
       -0.1291869 -0.12783088 -0.17834984 -0.13071088
000010 3c 87 d3 3a
       0.0016138325
