SpamEmails/spam_weights.pth (torch, 5335 bytes, 5 tensors)

0.weight f4 [12, 57]
0	0xbd87007c	-0.06591889
1	0xbe000e27	-0.12505399
2	0xbd38781c	-0.04503642
3	0xbd9dba56	-0.077015564
4	0xbe80bf48	-0.25145936
5	0xbce47102	-0.027885918
6	0xbe40a9fe	-0.18814847
7	0x3d82be09	0.063839026
8	0x3cbc4501	0.022982122
9	0xbe7cad0e	-0.2467539
10	0xbe1b5d62	-0.15172341
11	0x3ef206f6	0.47270936
12	0x3e7217db	0.23641913
13	0x3db4380a	0.08799751
14	0xbe6dafc4	-0.2321158
15	0x3dbe425e	0.09290002
16	0x3dcbfee0	0.09960723
17	0x3a19ab96	0.0005862055
18	0xbe028651	-0.1274655
19	0xbc9adf85	-0.01890541
20	0xbd212274	-0.039339498
21	0x3d7a34cd	0.06108551
22	0xbe0552e3	-0.130199
23	0x3e5ac94b	0.2136585
24	0xbaae1afa	-0.0013283186
25	0xbe7584fc	-0.23976511
26	0x3daaa293	0.0833179
27	0xbd047c24	-0.032344952
28	0xbcce13a9	-0.025155859
29	0xbe2a53db	-0.16633551
30	0x3e7e1b10	0.24815011
31	0xbdeb4787	-0.11488252
32	0x3d2427b9	0.040076945
33	0xbc055633	-0.008138227
34	0xbc4f23fc	-0.012642857
35	0xbeeb23c8	-0.45925736
36	0xbda4d983	-0.080492996
37	0x3c91e480	0.017809153
38	0x3aad46b5	0.0013219925
39	0x3e107aef	0.14109395
40	0x3e299c7f	0.16563605
41	0x3e033f33	0.12817077
42	0xbc15ce43	-0.009143415
43	0xbea8067d	-0.3281745
44	0xbd666249	-0.056246076
45	0xbea8a683	-0.32939538
46	0xbd248cb1	-0.040173236
47	0xbc542da5	-0.012950336
48	0x3e307b73	0.17234592
49	0x3bb5db69	0.0055498374
50	0x3e876d81	0.26450732
51	0xbd7a1ac4	-0.061060682
52	0xbe1abef7	-0.1511191
53	0x3daf799c	0.08568117
54	0xbd450df6	-0.048109017
55	0x3cf38331	0.029725643
56	0xbc2982b7	-0.010346106
57	0x3e905a01	0.28193668
58	0x3e7fec65	0.24992521
59	0x3de3bbc4	0.11119798
60	0xbcaed525	-0.02134187
61	0xbcc2a5cd	-0.0237607
62	0x3ddec6ae	0.10877739
63	0x3da81cbf	0.08208608
64	0xbd544aae	-0.051829033
65	0x3e6f6f41	0.23382284
66	0x3ecf85c3	0.4053174
67	0x3c47e0db	0.012199606
68	0x3e9b414a	0.3032325
69	0x3e16ab1b	0.14713709
70	0xbdfe1314	-0.124059826
71	0x3e516831	0.20449902
72	0xbef43cfc	-0.47702777
73	0x3e27038b	0.16309945
74	0x3ebea425	0.37234607
75	0x3de3f54b	0.1113077
76	0x3cfe2823	0.031024998
77	0x3c277bcd	0.0102223875
78	0xbe1531ac	-0.1456973
79	0x3d970fca	0.073760584
80	0xbe1c2425	-0.15248163
81	0xbefed9bd	-0.49775496
82	0xbdef0912	-0.11671652
83	0xbe3a4676	-0.18190941
84	0xbe9d37a4	-0.30706513
85	0xbd8f1c71	-0.06987847
86	0x3e06a1c0	0.1314764
87	0x3df47418	0.119362056
88	0xbe2ffe8e	-0.17186949
89	0xbe3d6f83	-0.1849957
90	0x3d731209	0.05934337
91	0x3d6a016c	0.057130262
92	0xbe9a4484	-0.30130398
93	0x3e755619	0.23958625
94	0x3d083c1d	0.033260453
95	0xbe293be4	-0.16526753
96	0x3e92e976	0.28693742
97	0xbddbf15f	-0.10739397
98	0xbd244737	-0.04010698
99	0xbea47984	-0.3212396
100	0xbddd9769	-0.10819895
101	0xbe9cfa43	-0.30659685
102	0xbe48a381	-0.19593622
103	0x3ba6c11f	0.00508894
104	0x3e3a1dac	0.18175381
105	0xbd6f4615	-0.058416445
106	0xbdd12fcb	-0.10214194
107	0x3e435503	0.19075398
108	0xbe2e10ef	-0.16998647
109	0xbd632992	-0.055459566
110	0x3eebd7f4	0.46063197
111	0xbc7a4686	-0.015275603
112	0x3d0ca593	0.03433759
113	0xbe8fe86b	-0.28107008
114	0xbd8e2861	-0.069412954
115	0xbd87d6ea	-0.066327885
116	0x3c5fb5cc	0.013654184
117	0x3bc6b287	0.0060637626
118	0x3e392e7c	0.18084139
119	0xbbd046cf	-0.0063560973
120	0x3e167ad9	0.146953
121	0x3d258f55	0.040419895
122	0x3e2922d1	0.16517188
123	0xbe317974	-0.17331487
124	0x3dcfb69b	0.10142251
125	0x3d3c2ad6	0.04593929
126	0x3c2305f8	0.0099501535
127	0xbd5b0e55	-0.053480465
128	0x3c554bdd	0.0130185755
129	0xbebfaad6	-0.37435025
130	0xbe1c8d8f	-0.15288375
131	0x3e6aebbd	0.2294149
132	0x3eddb73a	0.43303853
133	0x3ea18d9a	0.31553346
134	0x3e21b44a	0.15791431
135	0x3eb84aa6	0.35994452
136	0xbef5db97	-0.48019096
137	0xbeb4db00	-0.35323334
138	0xbf2b0122	-0.66798604
139	0xbee142fc	-0.43996418
140	0xbeeec2c3	-0.46632966
141	0xbe8425c5	-0.25810066
142	0x3ce24f5d	0.027625734
143	0xbe78bdd1	-0.24291159
144	0xbe5880ae	-0.21142837
145	0xbdc0f8f5	-0.09422485
146	0xbda57696	-0.08079259
147	0xbe06d871	-0.13168503
148	0x3d1bdf83	0.038054954
149	0x3e3ce901	0.18448259
150	0xbe88369f	-0.26604173
151	0x3e140223	0.1445394
152	0x3eae91bb	0.3409556
153	0xbd7d28cb	-0.06180648
154	0xbe6c53ed	-0.2307889
155	0x3d9a0450	0.07520354
156	0xbd5fed17	-0.054669466
157	0xbe9a5130	-0.30140066
158	0x3dba22dd	0.09088681
159	0x3eb71a28	0.35762143
160	0x3df71b27	0.12065726
161	0xbc15c11b	-0.009140278
162	0xbecd49c5	-0.40095344
163	0x3e8fd7b5	0.2809426
164	0x3dd981db	0.10620471
165	0xbd9456a2	-0.072430864
166	0x3e42df72	0.1903055
167	0x3d1539d1	0.03643209
168	0x3da1793e	0.07884453
169	0x3d9d2591	0.07673181
170	0x3d2129b9	0.03934643
171	0x3db47ebf	0.088132374
172	0x3e21c2eb	0.15797012
173	0x3e88494e	0.26618427
174	0xbd464355	-0.048404057
175	0xbc7c2633	-0.015389967
176	0x3d8b8599	0.06812591
177	0x3be7a9b9	0.007069793
178	0x3cd7b55d	0.026331598
179	0xbdaa67dd	-0.083205916
180	0xbcc1ed81	-0.023672821
181	0xbe360485	-0.17775162
182	0x3e226438	0.15858543
183	0xbd6037df	-0.054740783
184	0x3e3776f0	0.17916465
185	0x3ddb5936	0.10710375
186	0xbe9a51ba	-0.30140477
187	0xbe448032	-0.19189528
188	0xbcbde0df	-0.023178516
189	0x3dc08c71	0.09401787
190	0x3c04c151	0.008102731
191	0xbe2739ee	-0.16330692
192	0x3e14a7c9	0.1451713
193	0xbebfb429	-0.3744214
194	0xbe913a87	-0.28364965
195	0x3e065819	0.13119544
196	0x3e0297f4	0.12753278
197	0x3f378e17	0.71701187
198	0xbe402da6	-0.18767413
199	0x3e7979dd	0.24362893
200	0x3d078a42	0.033090837
201	0x3e2dbf2e	0.1696746
202	0x3d553183	0.05204917
203	0xbc870697	-0.016482634
204	0x3cfa3f66	0.030547809
205	0x3e9e4eaf	0.30919406
206	0x3e721521	0.23640873
207	0x3d529e8e	0.05142074
208	0x3c203538	0.009778313
209	0xbe61a28d	-0.22034664
210	0xbda7ee3c	-0.081997365
211	0x3e819e03	0.25315866
212	0x3ec1b47f	0.3783302
213	0x3d019db0	0.031644523
214	0xbc65bd66	-0.014022207
215	0x3d1e5c2d	0.038662124
216	0xbe5e9b28	-0.21738875
217	0x3d8f7b01	0.07005883
218	0xbe2f4486	-0.17115983
219	0xbce6d4ad	-0.028177584
220	0xbe69758b	-0.22798745
221	0x3da0eb69	0.07857401
222	0xbda38b6e	-0.079855785
223	0xbede4f0a	-0.43419677
224	0x3db7286e	0.08943258
225	0x3d80b575	0.0628461
226	0xbdc9d17d	-0.0985441
227	0xbc7500bb	-0.014953787
228	0xbc8061f8	-0.015671715
229	0x3d8469f2	0.0646552
230	0x3f050254	0.5195668
231	0xbdb49adf	-0.08818602
232	0xbd08f58d	-0.0334373
233	0x3e9e21ae	0.3088507
234	0x3d2637cc	0.040580556
235	0xbe9ca2d7	-0.30592987
236	0x3e1315ec	0.14363831
237	0xbe01a739	-0.12661447
238	0xbeb904e3	-0.3613654
239	0x3da7a865	0.081864156
240	0xbebe0a79	-0.37117365
241	0x3e1d47c2	0.15359405
242	0xbe473576	-0.19453987
243	0x3dab14df	0.0835359
244	0xbe9cd99c	-0.30634773
245	0x3d3fe2c1	0.04684711
246	0xbe84dc99	-0.25949553
247	0x3d819020	0.06326318
248	0x3e8c284e	0.273745
249	0xbd6cd018	-0.05781564
250	0x3dc4ba78	0.096058786
251	0xbe4c33f2	-0.1994169
252	0x3dbf40dc	0.09338543
253	0x3d9ccb89	0.07656009
254	0xbe6ccc84	-0.23124892
255	0xbd48674a	-0.04892663

0.bias f4 [12]
0	0x3e27432e	0.16334221
1	0x3d91ca11	0.07118619
2	0x3d868479	0.06568236
3	0x3f10f309	0.5662084
4	0x3e911bd3	0.2834154
5	0x3e82f372	0.2557636
6	0xbd1711f6	-0.036882363
7	0xbbfaeccd	-0.0076576234
8	0x3e2d19f4	0.16904432
9	0xbd534bb9	-0.051585887
10	0x3e890083	0.26758203
11	0x3ebed195	0.37269273

2.weight f4 [10, 12]
0	0xbdddcac2	-0.108296886
1	0xbe4f3006	-0.20233163
2	0xbe41d8f6	-0.1893042
3	0x3e0297d0	0.12753224
4	0x3e35e63f	0.17763613
5	0xbc3a7b74	-0.011381973
6	0x3e0f11d7	0.13971649
7	0xbc6ec989	-0.014574417
8	0x3eb374d8	0.35050082
9	0xbdb8ae41	-0.09017611
10	0x3cdce657	0.026965303
11	0xbc6cd91a	-0.014456058
12	0xbc450c3c	-0.012026843
13	0x3ee0f739	0.43938616
14	0x3e233392	0.15937641
15	0x3e5f4fcc	0.21807784
16	0x3e11e8c4	0.1424895
17	0xbebfd14c	-0.37464368
18	0xbeb9091e	-0.36139768
19	0x3e07f32c	0.13276356
20	0xbe528bc8	-0.20561135
21	0xbea2a6ba	-0.31767827
22	0x3dafdf46	0.08587508
23	0xbd90f6a1	-0.07078291
24	0x3e3a6428	0.18202269
25	0x3cd47455	0.025934378
26	0x3e3ffda9	0.18749107
27	0xbd29d1dd	-0.041459907
28	0xbdfa83b3	-0.12232151
29	0x3e85f3b4	0.26162493
30	0x3d2682dd	0.040652145
31	0xbdc02bec	-0.093833774
32	0xbe0a1e63	-0.13488154
33	0x3d6425c7	0.05570009
34	0x3e63e17e	0.22253987
35	0x3ec75214	0.38929808
36	0xbd8c6847	-0.06855827
37	0xbe52cee4	-0.20586735
38	0xbe8d5d2f	-0.27610156
39	0x3ef8724a	0.48524696
40	0xbe134758	-0.14382684
41	0x3e51a778	0.2047404
42	0xbd06f550	-0.032948792
43	0xbd28dfe2	-0.041229136
44	0x3e869699	0.26286772
45	0x3e268387	0.16261111
46	0x3dfcd146	0.12344603
47	0x3e9aff69	0.30272987
48	0xbe81b8c7	-0.25336286
49	0x3e8e3a8c	0.27779043
50	0xbd9f4f46	-0.07778792
51	0xbe3c9ce8	-0.1841923
52	0xbe849d4a	-0.25901252
53	0xbe820291	-0.25392583
54	0xbd5224f9	-0.05130479
55	0x3c84cf09	0.016212003
56	0xbe8658cf	-0.2623963
57	0x3e489904	0.19589621
58	0x3e5fac0a	0.21842971
59	0xbdacc340	-0.084356785
60	0xbe818bd3	-0.2530199
61	0x3f5e4a01	0.8683167
62	0x3ee040f1	0.43799546
63	0xbf02631f	-0.50932497
64	0x3f8b3916	1.0876796
65	0xbeee2f33	-0.46520385
66	0xbf0876b2	-0.53306115
67	0x3f8e9ba8	1.1141253
68	0xbf09dc42	-0.5385171
69	0xbd34af42	-0.04411245
70	0xbf56826e	-0.8379277
71	0xbf0d43bc	-0.5518148
72	0x3f7e5e73	0.9936287
73	0xbf874628	-1.0568285
74	0xbfb8aa8e	-1.4427049
75	0x3f995751	1.1979772
76	0xbf46b127	-0.77614063
77	0x3f645298	0.8918853
78	0x3f974663	1.1818355
79	0xbf8de3c4	-1.1085134
80	0x3fac220f	1.3447894
81	0x3e9b0904	0.30280316
82	0x3f9a91fb	1.20758
83	0x3fa75c15	1.3074976
84	0x3d8ad4fc	0.06778905
85	0x3e27e6bd	0.16396613
86	0xbe30d3e9	-0.17268337
87	0xbe1c2607	-0.15248881
88	0x3de63fd6	0.112426445
89	0xbdd3963c	-0.10331389
90	0xbe267c87	-0.16258441
91	0x3d968b14	0.07350746
92	0xbe7efc79	-0.24900998
93	0xbdb18801	-0.08668519
94	0x3c994aac	0.018712364
95	0x3e356de2	0.17717698
96	0x3eed146f	0.46304652
97	0xbeb72d49	-0.35776737
98	0xbf3642dc	-0.7119577
99	0x3f2af1cc	0.667752
100	0xbe8accee	-0.27109474
101	0x3eeb918c	0.4600948
102	0x3f267772	0.6502601
103	0xbf0d29c0	-0.5514183
104	0x3f24902b	0.6428248
105	0xbc9fdba0	-0.019513905
106	0x3ee41fc2	0.4455548
107	0x3f028d12	0.50996506
108	0xbe8eda8b	-0.2790111
109	0xbd41d362	-0.04732073
110	0xbe6fa600	-0.23403168
111	0xbe63395e	-0.22189853
112	0xbdbf0db3	-0.09328785
113	0x3e2bfb8d	0.16795178
114	0xbbbfaaf4	-0.0058492366
115	0xbdf62249	-0.12018258
116	0xbe929b8c	-0.28634298
117	0xbe2d5544	-0.16927058
118	0x3dce737d	0.100806214
119	0xbd4f127f	-0.05055475

2.bias f4 [10]
0	0xbe492554	-0.19643146
1	0x3e2c3063	0.16815333
2	0xbd3aac86	-0.045574687
3	0x3d334d66	0.043774985
4	0xbe702923	-0.23453192
5	0x3f133212	0.57498276
6	0x3dac7435	0.08420602
7	0xbe8b962c	-0.2726301
8	0x3d69904a	0.05702237
9	0xbe6b30b4	-0.22967798

4.weight f4 [1, 10]
0	0xbe7732b0	-0.2414043
1	0x3f198279	0.5996471
2	0xbedaa26b	-0.4270204
3	0xbf1d8191	-0.6152583
4	0x3c9d3915	0.019192258
5	0x4016302d	2.3466904
6	0xc0721d05	-3.7830212
7	0xbd6db7c0	-0.058036566
8	0xbfd655d3	-1.6744941
9	0xbdfa8d45	-0.12233976
